products/SystemUIGoogleParasite/SystemUIGoogle/root/assets/backgesture.tflite (tflite, 520656 bytes, 5 tensors)

hidden_layer_2/bias f4 [3]
00000000: b213 3140 3674 163e 0124 05c0
2.766827 0.14692768 -2.0803225

hidden_layer_1/bias f4 [3]
00000000: e8a1 763f bb93 1fbd 0000 0000
0.963408 -0.038959246 0.0

hidden_layer_1/MatMul f4 [3, 43005]
00000000: 2c82 acbd 0f11 9439 34e6 fe3e 02e4 963c
00000010: 5ef6 613f dd3d 003f d0a4 283f 80f0 823f
00000020: 7675 913f 0c9e e13e 2afa 353f b361 a93f
00000030: 84f3 f73e ba93 6f3f ff47 4f3f 2ecb 933f
00000040: c681 953f a9c7 853f 90d7 0c3f 0cd2 893f
00000050: c8b7 6d3f b211 9e3f d79f b03f efe6 493f
00000060: e5ff 603f eabd 2dbf d097 933f bfcf 953f
00000070: 21bb a43f 1f64 7b3f 6869 483f be17 a33f
00000080: fd91 be3f c32d 8d3f 84bb d13f a1ca 933f
00000090: 666c c63f bf56 f23d 051d a93f 22a0 a93f
000000a0: 0399 633f 622b bb3f 6300 913f 3b2b a23f
000000b0: a2a4 8f3f 1f5d 8a3f 5565 ad3f 424c 873f
000000c0: fc2d aa3f 5ff3 bb3f 552d a43f 64f4 353f
000000d0: 0946 103f c0b8 303f e7db 8f3f c812 a73f
000000e0: 716d 883f 864f 1c3f 1d42 d63f 4ad4 c63f
000000f0: 8ca9 843f 482d 8a3f 8d0a b93f 08a3 a33f
00000100: 7dfe 593f 46d8 c03f 692a a53f 61ad 9c3f
00000110: 333f 963f 0fca ae3f 885d a93f 3bcb aa3f
00000120: 0d1d 9a3f cf92 b13f 4004 923f 4be9 ba3f
00000130: 2e52 b23f 4c8d 873f 749c 7c3f 962f 8d3f
00000140: 695d 8f3f 7b94 b03f 390b 7e3f 40e7 b23f
00000150: cf28 a93f 980e b93f 0ac9 d43f c8ab 493f
00000160: 30e7 8a3f ebdd 9f3f 5a6d 2e3f 307c 7d3f
00000170: a256 963f 0c97 9e3f 2509 d13f 3261 7b3f
00000180: 85d7 813f a4a0 823f a7a2 963f 04d1 883f
00000190: ac23 b53f 50ba 9d3f 4264 973f 3f02 853f
000001a0: a77a 663f 8498 a33f 9470 a23f 1521 853f
000001b0: e2f0 bf3f 23a0 a23f 5959 b43f 3840 9d3f
000001c0: 6199 593f 34e5 953f bd75 853f f2b8 8e3f
000001d0: ca18 ab3f eaa9 763f fb7a 793f 80cf 853f
000001e0: 8347 803f ca8b 903f c3b3 993f 0c30 8d3f
000001f0: a787 873f 973d 853f b38d 3d3f c6a0 713f
00000200: 56b9 883f 3669 8c3f bdfc 8f3f d4bd 733f
00000210: 89d5 9e3f 48c2 803f f210 963f 1d70 983f
00000220: 70a8 a63f fcf6 673f be97 7c3f 67b2 2a3f
00000230: 3d52 733f 9718 3b3f c95b c23e 7768 b33f
00000240: 826b 733f a5ca 873f 3370 af3f cb58 8a3f
00000250: 012b 473f 254a a73f 3317 d93e 18fb 813f
00000260: 944e a33f 1d01 6e3f 961c 9d3f 66ae 963f
00000270: 6387 6f3f f19f 943f d762 8e3f 5502 463f
00000280: 1fbd c5be 67c7 a73f 5cfc 753f 1d51 933f
00000290: 1888 813f 6824 9c3f 46fc 9b3f 002c 8b3f
000002a0: 0317 123f 70c7 663f 9520 9b3f 8b5a 593f
000002b0: 0d52 533f d3fa 893f 8fe7 813f 156a 7b3f
000002c0: 9714 3d3f f1f5 993f e24e 6e3f 2cbd 893f
000002d0: a5a3 423f 6046 8b3f bd56 973f bee9 853f
000002e0: 2c1c a13f 865f 703f f998 6b3f 214e 593f
000002f0: a582 683f eb1f 913f fae6 923f 487a 843f
00000300: 0b5e 703f 9612 4f3f 226d 903f 06d3 903f
00000310: 4967 4c3f 860b a43f 2e9d 633f 8bfc a23f
00000320: 00a2 893f d4ce 8e3f 4454 2f3f 041f 863f
00000330: f49f 7a3f 809e 883f 7b27 913f d6d4 883f
00000340: b9d7 393f 014a 8f3f cb15 823f dcef 8e3f
00000350: f191 8e3f 2083 933f 336e 7f3f 32ad 973f
00000360: 3e54 7c3f 2d5e 303f 0aac 6a3f 69d6 6e3f
00000370: 04c7 733f 92ff 463f 2517 873f 5e6c 913f
00000380: 3779 883f f020 883f b9d5 883f eb57 873f
00000390: 8744 853f 25b4 973f 8ca3 8d3f 2ca7 8a3f
000003a0: 8fde 8f3f eec3 793f 259f 143f a4b8 833f
000003b0: 6a5f 5e3f 1120 6f3f c736 563f 1820 433f
000003c0: 3ad7 803f fae5 4e3f c91e 833f a155 583f
000003d0: 0e59 3a3f 9ed7 2b3f 2f60 643f 69af 933f
000003e0: df7f 3b3f cba1 503f 2620 643f bbcb 6c3f
000003f0: 415c 8f3e 7ec5 553f 6000 7f3f 3528 563f
-0.08423266 0.0002824147 0.49785006 0.01841927 0.8826655 0.50094396 0.65876484 1.0229645
1.1363971 0.44065893 0.71084845 1.323294 0.48427975 0.9358479 0.8096923 1.154638
1.1680229 1.0451556 0.5501642 1.0767226 0.9285855 1.234915 1.3798779 0.78868
0.87890464 -0.6786791 1.1530704 1.1704024 1.2869607 0.9819965 0.7828584 1.274162
1.4888302 1.102959 1.638535 1.1546212 1.550183 0.11832952 1.3211981 1.3251994
0.8890535 1.4622614 1.1328243 1.2669443 1.1222117 1.0809668 1.3546549 1.0570147
1.3295283 1.4683646 1.2826334 0.71076035 0.56356865 0.69031906 1.1238984 1.3052607
1.0658399 0.61058843 1.6738926 1.5533535 1.0364242 1.0795069 1.4456345 1.2784128
0.85153943 1.5066001 1.2903568 1.2240411 1.1738037 1.3655413 1.3231668 1.3343271
1.2040116 1.3872927 1.1407547 1.4602445 1.3931329 1.0589995 0.9867623 1.1030147
1.1200382 1.3795313 0.99235874 1.3976822 1.3215579 1.4457579 1.6623852 0.7877774
1.0851803 1.2489599 0.6813561 0.9901762 1.1745188 1.2389846 1.6330916 0.98195183
1.0143896 1.0205274 1.1768388 1.0688787 1.4151511 1.2322483 1.1827471 1.039131
0.900309 1.2780919 1.2690606 1.0400721 1.4995387 1.270512 1.4089767 1.2285223
0.8499966 1.1710572 1.0426556 1.1150191 1.336694 0.9635302 0.9745328 1.0453949
1.0021824 1.129266 1.2007984 1.1030288 1.0588273 1.0409421 0.7404434 0.94385946
1.068156 1.0969608 1.1249005 0.9521153 1.2408916 1.005929 1.1723921 1.1909214
1.3020153 0.90611243 0.9866904 0.6667847 0.9504736 0.73084396 0.37960652 1.4016255
0.9508592 1.0608717 1.3706115 1.0808347 0.77799994 1.3069502 0.42400512 1.0154753
1.2758355 0.9297045 1.2274349 1.1771972 0.9356596 1.161131 1.1123914 0.7734731
-0.3862085 1.3107728 0.96088195 1.1509129 1.0119658 1.219861 1.2186363 1.0872803
0.57066363 0.9014807 1.2119318 0.8490378 0.82547075 1.077967 1.0148791 0.98208743
0.7385954 1.202818 0.93089116 1.0760856 0.7603095 1.0880852 1.1823345 1.0461957
1.2586722 0.9389576 0.9203029 0.8488484 0.9082435 1.1337866 1.1476738 1.0349817
0.938935 0.80887735 1.1283305 1.1314399 0.798451 1.2816017 0.8891171 1.273332
1.0752563 1.1156869 0.68487954 1.0478215 0.9790032 1.067337 1.1340173 1.0689952
0.7259479 1.1194459 1.0162901 1.1166949 1.1138288 1.1524391 0.99777526 1.184973
0.98566043 0.688937 0.9166876 0.93295914 0.9522555 0.7773372 1.0553938 1.1361196
1.0661992 1.0635052 1.0690223 1.0573705 1.0411538 1.1851851 1.1065536 1.0832267
1.1239794 0.9756459 0.58055335 1.0290723 0.8686434 0.93408304 0.83677334 0.76220846
1.0065682 0.80819666 1.024377 0.8450566 0.72792137 0.6712588 0.89209265 1.1537906
0.7324199 0.81496876 0.89111555 0.9249837 0.28000072 0.83504474 0.9960995 0.836551

hidden_layer_2/MatMul f4 [3, 3]
00000000: 46fc cdbe 988c 173f 0022 7b3c 5d0b 023f
00000010: c462 eebe b0d6 e33e 9bef 2f3f ea1d bb3e
00000020: 60a9 5cbe
-0.40231532 0.59198904 0.01532793 0.5079859 -0.46559727 0.4449973 0.68724984 0.3654626
-0.21548986

probability_output/MatMul f4 [1, 3]
00000000: 5cb0 ac3e 74b7 863f 6fb3 2fbf
0.33728302 1.0524735 -0.6863317
